CNNmodel.pth (torch, 434265 bytes, 8 tensors)

conv1.weight f4 [16, 3, 3, 3]
00000000: a033 20be 9197 98bd 1050 0ebc 65d9 2dbe
00000010: 693f 403e ec46 29bd c8ca 0bbe 1f14 2ebe
00000020: ca71 9f3d 00b2 443a 97b8 8ebd 57f7 2b3e
00000030: 12f4 b0bd 29de 423e 7ce1 66bd c0c2 94bc
00000040: 94b0 0dbd f416 41bd dc3a 03bd 145d 6dbd
00000050: 1b65 413e 6464 623d bad8 e63d 46f9 a73d
00000060: b0a7 e2bc 0a07 803d 822d f2bd de6c e1bd
00000070: 48ee 493d b077 1abc fa2f c23d 7031 cd3c
00000080: 8830 c8bd ad70 073e 0a76 0fbe 75fb cdbd
00000090: 66bb cabd c856 d2bc ac87 68bd b592 343e
000000a0: 580a 443d b07a 243d 2214 e73d d854 dbbc
000000b0: cf04 1dbe d2db c2bd d995 dabd f320 bcbd
000000c0: d230 8a3d d5cc 97bd c03e 0d3c e6b4 ee3d
000000d0: 1ffd 403e b79c 43be b325 b3bd 00a7 b8bc
000000e0: 303e c3bd 008d 19ba 4967 d8bd b04f dabd
000000f0: 63c9 0a3e 805b d73c 31a0 3abe 986b c13c
00000100: b849 1cbe 5885 c4bc 50e9 723c 8678 1bbe
00000110: 5328 8ebd f011 0b3c 48d6 f73c c0e1 263d
00000120: 351a 063e c302 313e 41db 173e 10c4 12bd
00000130: 0977 8abd 7b4e b6bd babe c13d e068 56bc
00000140: 40be 35bb 82e9 d23d f7c8 04be f26b 843d
00000150: e557 0e3e a4c6 3cbe 127a 8a3d ff5d 043e
00000160: c3be 3bbe 9c21 56bd f802 c13c a3c9 2bbe
00000170: 0bf3 34be d045 3abd b41b 7cbd 30a5 6a3c
00000180: 4438 b4bd d7b4 edbd 6e52 b93d e17a 043e
00000190: 6c01 6e3d 6256 2ebe 7f41 053e 1137 08be
000001a0: 90ca 0d3c 30f3 f23c f0a3 a8bc ea87 ce3d
000001b0: 6d30 303e 5029 21be a831 3dbe 4826 03be
000001c0: cd82 323e 4cc9 08bd 63ae 393e defe 9abd
000001d0: b241 d4bd 0087 9c3c bfb3 36be f07a 183c
000001e0: a5a2 1fbe 605c 15be 1383 303e f900 ffbd
000001f0: 1645 1cbe 5984 fcbd 36d0 85bd 4bc4 0ebe
00000200: aaba 833d b2e2 aabd b68d 983d e5b6 0d3e
00000210: d185 443e e5ba 313e 88ea 493d 4324 063e
00000220: c4de 7d3d 58e0 bbbc 542e 1abd 10dd e8bd
00000230: 93a6 3f3e 440d 113d a081 72bc bc78 00be
00000240: 1035 d0bc 101d 103c 84c0 2cbe ec8e 4d3d
00000250: 49b0 eabd 00a0 4838 764e 9d3d 70cc 0f3c
00000260: cecf a53d ae90 89bd f878 663d 7c26 10be
00000270: 811d 3dbe ac43 13bd d000 5a3d 4a7a fcbd
00000280: 6aed 1abe b22c 8a3d c7fa a5bd ac42 98bd
00000290: 00d3 3ebe d68c 993d a9ee 0a3e 600e e5bb
000002a0: 84d3 673d 4b41 0f3e 01dc 0d3e 1628 e53d
000002b0: f021 37be d88b 563d b7d2 10be 58d7 1dbd
000002c0: c955 243e e0f1 f5bc 59ee bfbd 88c5 0f3d
000002d0: d2a1 f13d ce6f 10be 24c7 42be e0c1 04bd
000002e0: c354 1ebe 7ecd a73d 9345 3d3e a04c 8ebd
000002f0: be1d be3d ba76 e03d 380c b23c bcf2 fdbd
00000300: 335b 003e b623 b1bd 7066 aebd 78d3 6abd
00000310: ba1e 8b3d 5f4c 8abd c0ba d9bc 9b36 3c3e
00000320: e675 adbd 054a 3d3e 446e 643d 1087 803c
00000330: 228f d73d 600d 96bc 80ec 933c a805 a9bc
00000340: ac17 1abd b3d8 403e a08f 183c 21dc c1bd
00000350: 6c0a 6d3d 8a96 f53d b043 1d3d 13e6 29be
00000360: 18fd 0c3d b282 0ebe 2d46 413e b0f5 623d
00000370: 048b 31bd e2e9 813d d403 0dbe d62d b93d
00000380: bbbd bdbd 5557 153e 709b 373c 534b d5bd
00000390: 529a b33d a02c 2abe 648a 353d c8b4 d43c
000003a0: a851 063d b02d cabc 0007 dd3b 00ad 0cbe
000003b0: 741e 0ebd 6b4b 96bd 5096 623d 80b2 caba
000003c0: 7846 bd3c b50f c6bd fed5 d03d 2ab8 98bd
000003d0: 06f5 8c3d d484 febd 0867 25bd 44df e8bd
000003e0: 784e 22be 6806 88bc 2014 b4bb 4b5b 3dbe
000003f0: dd09 453e ec6f 07bd 802b cc3b aa5c ae3d
-0.15644693 -0.07450784 -0.008686081 -0.1697746 0.18774189 -0.041327402 -0.13651574 -0.16999863
0.077853754 0.00075033307 -0.069688015 0.16793571 -0.08640303 0.1903006 -0.056367382 -0.01815927
-0.034592226 -0.04714103 -0.032038555 -0.057950094 0.18886225 0.05527152 0.11271806 0.08201842
-0.02766785 0.062513426 -0.11825086 -0.11007093 0.04929951 -0.00942795 0.09481807 0.025047988
-0.097748816 0.13226576 -0.14009872 -0.10057727 -0.09899025 -0.025676146 -0.05677001 0.1763409
0.047861427 0.040156066 0.11283137 -0.026773855 -0.15333866 -0.09514584 -0.106731124 -0.09185972
0.06747593 -0.074121155 0.008620918 0.116555974 0.18846558 -0.1910275 -0.08747425 -0.02254057
-0.09533346 -0.00058574975 -0.10566575 -0.106597304 0.13553385 0.026288748 -0.1822517 0.023610875
-0.15262496 -0.023989365 0.014826134 -0.15182695 -0.06941285 0.008488163 0.030253544 0.040742636
0.13095935 0.1728621 0.14829732 -0.03583151 -0.067609854 -0.08901688 0.09460206 -0.013086528
-0.0027731806 0.10298444 -0.12967287 0.064659014 0.13900717 -0.1843515 0.06761564 0.12926482
-0.18334489 -0.052278146 0.023560986 -0.16776137 -0.17670839 -0.045476735 -0.061549857 0.01432161
-0.08799794 -0.11606758 0.09048925 0.129375 0.058106825 -0.1702514 0.13013266 -0.13302256
0.008654252 0.029656976 -0.020585984 0.10084517 0.17205973 -0.15738416 -0.18475974 -0.12807572
0.17432709 -0.033395097 0.1813293 -0.07568143 -0.10364093 0.019107342 -0.17842005 0.009306654
-0.15589388 -0.1458602 0.17237501 -0.124513574 -0.15260729 -0.12329931 -0.06533854 -0.13942067
0.06432088 -0.0834402 0.07448904 0.138393 0.19191672 0.17356451 0.049295932 0.1309977
0.061980024 -0.022934124 -0.03764184 -0.11370289 0.18715887 0.03541304 -0.014801413 -0.12546057
-0.025415927 0.008795992 -0.16870314 0.05018513 -0.11459405 4.7832727e-05 0.07680981 0.008776769
0.08096276 -0.067170486 0.05626771 -0.1407718 -0.18468286 -0.03595321 0.05322343 -0.12328012
-0.15129629 0.06746806 -0.081044726 -0.07434592 -0.18635178 0.074975654 0.13567604 -0.006990239
0.0565982 0.13989751 0.13853456 0.111892864 -0.1788404 0.05237946 -0.14142881 -0.038535446
0.1604835 -0.030022562 -0.09371633 0.03510049 0.11798443 -0.1410515 -0.19021279 -0.032411456
-0.15462022 0.081934914 0.18483572 -0.06948209 0.092830166 0.10960145 0.021734342 -0.123998135
0.1253479 -0.086493894 -0.08515632 -0.05733058 0.0679297 -0.06752848 -0.026578307 0.18380205
-0.08469753 0.18485267 0.05576922 0.015689403 0.10525347 -0.018316925 0.018057108 -0.02063258
-0.03762023 0.18832664 0.009311587 -0.094658144 0.057871267 0.11991604 0.03839463 -0.16591673
0.034421057 -0.13917044 0.18874426 0.055410087 -0.043345466 0.06343438 -0.13770992 0.09041946
-0.09264704 0.14584096 0.011206493 -0.104147576 0.08769669 -0.16618586 0.044321433 0.02596511
0.032792717 -0.024679989 0.006745219 -0.1373787 -0.03469701 -0.073386036 0.05531913 -0.0015464574
0.023104891 -0.09670965 0.10197066 -0.074570015 0.06882672 -0.12427679 -0.04038146 -0.113707095
-0.15850246 -0.016604617 -0.005495563 -0.18491857 0.19242044 -0.03306572 0.0062307715 0.08513768

conv1.bias f4 [16]
00000000: e0dc 5fbd 9e95 e33d da20 813d 003a 423d
00000010: 54de 0e3d d869 07be 4ab1 8d3d 2fd8 3f3e
00000020: 3669 91bd 861f c6bd 78b0 b8bc d3ec 2bbe
00000030: d430 15be 5495 553d fb11 103e 0575 3e3e
-0.054654002 0.111125216 0.06305094 0.047418594 0.034879997 -0.1322397 0.06918581 0.18734811
-0.071001455 -0.09673981 -0.022545084 -0.1678956 -0.14569408 0.052144364 0.14069359 0.18599327

conv2.weight f4 [32, 16, 3, 3]
00000000: ce0d 94bd d801 52bc 8062 083d e751 853d
00000010: 30dc f5bc f5f8 8c3d c16d 833d f306 2ebd
00000020: f8d3 2c3c b0a0 56bd 8bb6 26bd 382f 7bbd
00000030: c0e2 9cbc 307c a6bd 0450 eb3c 7e24 263d
00000040: 97e7 8cbd 9624 91bd 60f1 56bd 7651 393d
00000050: 90bc febc 32fe 96bd 40a4 85bc 1e7d 093d
00000060: dbc8 30bd 6b27 29bd bc81 90bd 542a 943c
00000070: e6e4 fdbc c2c3 3d3d 1844 5c3c 08bc 033c
00000080: 7606 783d e7c1 80bd f4aa a93c 4bc2 9e3d
00000090: 1652 133d 189a 08bc 48af 66bc e3f0 32bd
000000a0: 420b 7b3d 58a2 7d3c fbc2 a0bd 906d f1bb
000000b0: 5ae6 283d 60f9 fa3c a715 9b3d 7b1b 1cbd
000000c0: 0353 03bd 42a1 523d 9d5a 863d 26ce 5b3d
000000d0: 351a 853d 026d 353d d3b4 32bd 18ef 88bd
000000e0: 4071 49bd e0ed 00bd d651 1a3d b039 9cbb
000000f0: 86cb debc 450a a43d aadc 303d 50a2 83bc
00000100: 68d2 133c e0af 53bc 77f8 95bd dcd7 ea3c
00000110: a841 4ebc 7bad 883d 3e3e 54bd d278 4e3d
00000120: 43db 85bd 55bb a33d a34f a13d d67c 1f3d
00000130: 00c1 1b3d 3090 26bd b8cf 89bd e863 2ebc
00000140: 587e 05bc 8088 6d3a 2863 24bc d7b6 84bd
00000150: fcb4 a0bc c813 80bd 3a99 4e3d 2874 57bd
00000160: 7955 8f3d 1d8f 913d 162a 95bd 1ac4 3e3d
00000170: 6020 213b a01e 463b 4340 a6bd 3c63 90bd
00000180: 8d9c 843d 30fb fb3c ca7b 0c3d 2866 01bd
00000190: f229 043d de69 03bd a093 24bc e03b 72bd
000001a0: 771d 86bd 46bf 1fbd 307f 273d b691 babc
000001b0: 234e 8c3d d0e6 0f3d 88ac 7cbd 220a 3d3d
000001c0: 3cbf a93c 00b9 b1bc 28fe 203d 6367 a3bd
000001d0: a013 81bd 907f 95bb a004 323b 8032 4dbc
000001e0: f606 22bd d1e6 a03d f6a8 8cbd a04a 1d3d
000001f0: 9cc6 f7bc 804b 633c 60a8 28bd 5051 9a3c
00000200: 1d5f 8a3d 80da 9b3b 8cfc d4bc dee4 52bd
00000210: fc97 f1bc 823b 433d 7376 09bd 4cd8 89bd
00000220: 6024 6dbd 0e6f a3bd cdfc 8b3d e88a 413c
00000230: ea6e 2a3d 76f1 69bd 780a 31bd 2357 2abd
00000240: 1517 803d ce19 4e3d 3c92 a5bc 0064 d33b
00000250: 9777 a03d 883f 093d 4059 33bd b2a4 693d
00000260: e444 f43c 60a9 713b 40c5 e63a b7ab 8fbd
00000270: 7feb a5bd 98f5 40bd 930b 04bd 23d9 31bd
00000280: 006a a83a b028 71bd 862d d6bc 442f 86bc
00000290: 80fd 1fbd 7e06 06bd 26f1 a2bd 7aa1 90bd
000002a0: a605 113d b4b7 9fbc 034f a5bd c06a 75bc
000002b0: febb 413d 938f 7bbd 2433 d63c f827 17bc
000002c0: f0ef 93bc d0e7 cf3c f676 44bd 7822 52bc
000002d0: d25e 413d 0487 9cbd 5e86 583d 289f 0cbc
000002e0: f6cf 6bbd f698 4b3d 58b0 263c 0fa3 82bd
000002f0: 309c 91bb 4f3d 9e3d 40c5 9bbb 6024 c43c
00000300: 808c 763b 0424 83bd c0fd d23c 08db 1f3d
00000310: 9091 59bd d658 ecbc 1ff5 a23d 9ec0 6c3d
00000320: be5d 6bbd 7673 373d f857 2f3c 4b5e 86bd
00000330: d2dc 143d a0a9 70bc f723 a7bd 3d41 9f3d
00000340: 6af3 013d a0ca 58bd 9f7c a63d e2de 99bd
00000350: d468 ee3c b574 8f3d c60f 553d 7d40 863d
00000360: 803c 11ba 48f4 42bd 0026 d33a 76ee a8bd
00000370: 08ed 3e3c 4b7c 51bd 6aec 5f3d 3627 613d
00000380: de6d 053d 9629 4fbd 8b28 2cbd e099 8e3c
00000390: e667 d4bc a166 853d b01c 55bd 44ae bc3c
000003a0: ee5a 7abd 2a53 353d b62e 3e3d a181 803d
000003b0: c367 86bd 279b 913d d6bb 753d e0e9 a7bd
000003c0: 88b0 453c 5e04 023d 40c9 fcbb ccd3 dabc
000003d0: a844 45bd 80df 4ebd acbd 9ebd b09e ca3b
000003e0: 369e c1bc fb5d 30bd f3ea 7dbd 66f8 2ebd
000003f0: 5145 9f3d 1ca9 ac3c ecb1 8ebc 532a 3bbd
-0.072291955 -0.012817822 0.033297062 0.06509762 -0.03001222 0.06883422 0.06417418 -0.042487096
0.010548584 -0.052399337 -0.04070143 -0.06132433 -0.019151092 -0.08129156 0.028724678 0.040562145
-0.0688011 -0.07087056 -0.052476287 0.045243703 -0.031095773 -0.07372703 -0.016313672 0.033566587
-0.0431603 -0.041297358 -0.07055995 0.01808659 -0.030992936 0.046329267 0.013443969 0.008040436
0.060553037 -0.06286984 0.0207114 0.07751902 0.035966955 -0.00833752 -0.014079876 -0.04368676
0.061290033 0.0154806 -0.078496896 -0.007367797 0.041235305 0.03063649 0.07572489 -0.038112145
-0.032061588 0.05142332 0.06560252 0.053663395 0.06499139 0.04429341 -0.04362948 -0.066862285
-0.04918027 -0.031476855 0.0376757 -0.004767619 -0.027196657 0.08009771 0.04317919 -0.016068608
0.009022333 -0.01292035 -0.073227815 0.028667383 -0.012588896 0.06673714 -0.05181717 0.050408192
-0.065359615 0.07994715 0.078765176 0.038937412 0.038025856 -0.04066485 -0.06729072 -0.010643937
-0.0081477985 0.00090611726 -0.010033406 -0.064801864 -0.01961755 -0.06253773 0.050439097 -0.05260101
0.069987245 0.07107375 -0.07283418 0.046573736 0.0024585947 0.0030230656 -0.08117726 -0.070501775
0.06475172 0.030759424 0.034297742 -0.031591564 0.032266565 -0.032083385 -0.010044962 -0.059139132
-0.06548589 -0.039000772 0.04089278 -0.022774559 0.06850841 0.03513223 -0.061687976 0.04615224
0.02072107 -0.02169466 0.039304882 -0.07978704 -0.06302571 -0.004562326 0.0027163401 -0.012524247
-0.03955742 0.07856525 -0.06868164 0.038401246 -0.030246072 0.013872981 -0.0411762 0.018837601
0.06756423 0.004756272 -0.02599933 -0.051487796 -0.029491417 0.047664173 -0.033560228 -0.067307085
-0.057896018 -0.079801664 0.06835327 0.011812903 0.041609682 -0.05711504 -0.043222874 -0.041587006
0.062544025 0.050317578 -0.020211332 0.00645113 0.0783531 0.033507854 -0.043786287 0.05704183
0.029818006 0.0036874637 0.0017606393 -0.07015174 -0.08101558 -0.047109216 -0.0322376 -0.04341997
0.0012848973 -0.058876693 -0.026144754 -0.01637996 -0.039060116 -0.032721035 -0.07956152 -0.07062049
0.035405777 -0.019496776 -0.08071711 -0.014979064 0.047298424 -0.06141622 0.026147433 -0.009225838
-0.018058747 0.025379092 -0.047965012 -0.012825601 0.04720957 -0.0764294 0.052862518 -0.008582868
-0.057571374 0.04970642 0.01017388 -0.06378757 -0.004443668 0.077265374 -0.0047537386 0.023943126
0.0037620366 -0.06403354 0.025755763 0.039027244 -0.053117335 -0.028850954 0.079569094 0.05780088
-0.057462446 0.044787847 0.010702126 -0.06560954 0.036343403 -0.014688879 -0.081611566 0.07776115
0.03172628 -0.052927613 0.08129238 -0.07513215 0.02910272 0.07004682 0.052016996 0.06555269
-0.0005540326 -0.047596246 0.0016109347 -0.08248608 0.011653192 -0.051143926 0.05466882 0.054969035
0.03257548 -0.05057677 -0.042030852 0.017407358 -0.025928449 0.065137155 -0.05202931 0.023032315
-0.061121874 0.044268765 0.046431266 0.06274725 -0.0656276 0.07109671 0.059993587 -0.08198905
0.012066014 0.031742446 -0.0077144206 -0.02671232 -0.04816118 -0.050506115 -0.07751021 0.006183468
-0.023635011 -0.043058377 -0.061991643 -0.04271736 0.07776893 0.021076731 -0.017418824 -0.04569466

conv2.bias f4 [32]
00000000: 293a a63d 9883 3cbc 56d7 5bbd 3a08 293d
00000010: 5435 9f3c 9f2b 82bd 001d 243c 3371 45bd
00000020: e095 22bd 00c0 d2b7 f6f2 383d b0c3 31bd
00000030: 80bd 91bd 4842 22bd 1097 05bd 1b34 02bd
00000040: 1ec1 623d 007e 3dba 0403 943c d87c 5d3c
00000050: 70fe 63bd 7bcc 1bbd daf0 7f3d 63b0 9cbd
00000060: ab2b 74bd 0f35 8abd d671 41bd 9e0f 3bbd
00000070: 80c5 86bd e6c1 4d3d ef59 863d 7088 d73b
0.08116562 -0.011505984 -0.053672157 0.04126761 0.019434609 -0.06355976 0.01001668 -0.04820366
-0.039693713 -2.5123358e-05 0.04515358 -0.043399513 -0.071162224 -0.039613992 -0.032614768 -0.031787973
0.055359952 -0.00072285533 0.018067844 0.013518535 -0.055662572 -0.038036805 0.062485553 -0.076508306
-0.059611958 -0.067484014 -0.047227703 -0.04566919 -0.06580639 0.050233744 0.06560122 0.006577544

fc1.weight f4 [128, 800]
00000000: b084 a83b 60f3 fabb 18cf 683c 4f12 a0bc
00000010: e409 19bc efc4 0d3d 9a4e f9bc f54c 063d
00000020: 1cd9 763c a217 79bc d882 dc3b e0a1 fb3a
00000030: fefa 56bc 9cf7 2cbc c05e 44bb 04c3 fbbb
00000040: 580f 1d3c 50bc a03c d8ea 8fbb 1249 d7bc
00000050: 5f7d 003d 80b9 783b 6e23 ebbc 5ef9 d83c
00000060: 9eec a03c 82df babc 5413 243c 4cd6 c83c
00000070: 58e6 07bc dc04 673c 2633 fcbc 48e8 703c
00000080: eef3 e53c b3f0 093d ae33 10bd 4849 d1bc
00000090: fb75 82bc e2bb 853c a04f ff3a acb7 bf3c
000000a0: 907d 093c f263 af3c 3cab a03c 608f 2dbc
000000b0: 0221 9ebc d42d 9d3c b969 cbbc c65e 45bc
000000c0: 6976 a8bc a6ef 50bc 9225 8d3c 339b fcbc
000000d0: f8bd eabb c1ed 0ebd 713f f1bc b04b 9f3b
000000e0: fea2 0cbd 6844 963b 9b74 94bc a80e 7bbc
000000f0: 4688 dc3c c888 473c 3069 ca3b 4192 0d3d
00000100: c781 023d ac9b e1bb 44b5 373c 936d 10bd
00000110: 92d0 b8bc 9218 b7bc 385f 0a3c 12e6 67bc
00000120: d02c afbc 8ce4 32bc befa 943c b0ef 083b
00000130: f668 62bc c42b c1bb f8b2 b93b a4e2 1ebc
00000140: 7832 42bc 3417 0d3c 55a8 b2bc f0c5 6cbc
00000150: 306f d63c 4016 eb3a 9ce0 f4bc 0a0a f93c
00000160: 445f 0d3c 925a c33c 3e2d df3c 7a71 c03c
00000170: 24fb 0a3c b856 d03c 136b 073d 5850 fdbb
00000180: dcf3 933c d58d 0a3d d03e 33bc e083 83bc
00000190: 3295 1ebc 4adb 70bc 00c0 da3a 1637 31bc
000001a0: be0d cebc 1b19 03bd 006d 51ba c3c2 0b3d
000001b0: dbca e8bc 7096 6b3b 00cf c9b9 a611 0ebd
000001c0: 3f3f 003d ee1e ac3c da4e d73c c807 f8bc
000001d0: f80b 9b3b 0c7f bc3c 88f7 543c d487 483c
000001e0: a035 b53a b1e9 e1bc 66fc 8f3c 48cb bd3c
000001f0: 56e0 ec3c 6e1b ec3c 5060 413c 508c b23c
00000200: 5471 babb 42b4 e83c 30f7 ebbc 8ba2 0b3d
00000210: f0c2 633c 02c1 d03c b8ac 2b3c d2cc 8dbc
00000220: 5b77 0ebd 8f28 84bc 1389 b7bc 10a5 0a3c
00000230: a3f8 cebc 7c76 4b3c 22b2 06bc c062 f0ba
00000240: 8417 12bc 8659 14bc bcad adbc 8088 4d3c
00000250: ea5b 57bc d03b 043c acff 283c 24c0 b9bc
00000260: 9070 1dbb 607d 953b b44a 05bd 6ef9 67bc
00000270: bec0 c8bc 604c 953a 4693 8bbc 64a3 ba3c
00000280: 8008 b93b 40b4 743a 64d1 d43c e05a ed3b
00000290: 40a6 7abc 5716 0cbd a717 a3bc 4831 9f3c
000002a0: 5f56 dbbc fcf0 8dbb e302 c7bc a081 ed3b
000002b0: d8f3 cc3c 801b de3c 38d6 8f3c 6f32 103d
000002c0: d657 843c 4fac 0cbd 9446 62bc f0f7 e13b
000002d0: 0815 a6bc a0d6 45bb 6347 0ebd 5111 f7bc
000002e0: 1695 32bc a5ed eabc 1563 d9bc d1fc dabc
000002f0: 98d8 923c 1655 9fbc eee2 02bc aab8 10bc
00000300: 3022 63bc e8ff f23b 3cfd 8cbc 2039 96bc
00000310: 8db8 90bc 84d5 183c c23a fcbc 70b5 8b3c
00000320: 7cea 8abb c0cd 833c 66c0 f4bc bc41 213c
00000330: d467 1e3c cca8 d5bb 9894 463c cec2 79bc
00000340: 5037 a33c 90f7 603c 5494 c4bb 60dd d8bc
00000350: 1036 e93b ac29 213c 60b1 6a3c 9d79 0b3d
00000360: 6e67 ba3c e8ba 543c d2e4 df3c f9ac fcbc
00000370: 6a77 ed3c 6011 ac3b 7a16 cebc 4cfb 1e3c
00000380: b924 0cbd 84e7 98bc 08b8 fc3b 6005 0e3b
00000390: b83d dfbc 498e c5bc e9bf 083d 3b81 efbc
000003a0: 6022 c7bb 6b1e f6bc 4ef0 60bc 12c6 c13c
000003b0: 2e4e f73c f883 c13c 48ad a6bc e044 eb3a
000003c0: 0646 e93c 5e16 dc3c 307f c73c 08d0 b73c
000003d0: f822 863c f4c7 c0bc 4ca8 5fbc d2ac e1bc
000003e0: 386a 3a3c 22ae 0cbc b0f3 3bbc 0672 e63c
000003f0: 0ad7 963c 2b67 b7bc 806a a6b9 6421 353c
0.0051427707 -0.007658407 0.014209531 -0.01953998 -0.009340737 0.03461164 -0.030432988 0.032788236
0.015066411 -0.015203388 0.006729465 0.0019198023 -0.013121365 -0.010557082 -0.0029963702 -0.00768316
0.009586178 0.019621044 -0.004392009 -0.02627996 0.031369563 0.0037952363 -0.028703418 0.026486095
0.019644078 -0.022811655 0.010014374 0.024516247 -0.008294664 0.01410028 -0.030786108 0.014703818
0.028070416 0.033676814 -0.035205536 -0.025547639 -0.015925398 0.016324941 0.0019478686 0.023403011
0.008391753 0.021409962 0.0196129 -0.010593265 -0.019302849 0.019186892 -0.024830686 -0.0120465215
-0.020564275 -0.012752449 0.017229829 -0.030835724 -0.0071637593 -0.03489471 -0.029449197 0.0048613176
-0.03433513 0.0045857914 -0.018122008 -0.015323319 0.026920449 0.012178607 0.00617709 0.034563307
0.031862047 -0.0068850126 0.011212651 -0.035260748 -0.022560392 -0.022350583 0.0084455535 -0.014153974
-0.021383673 -0.010918748 0.01818597 0.0020894818 -0.01381897 -0.00589511 0.0056670867 -0.00969759
-0.011852853 0.008611489 -0.021808783 -0.014451489 0.026176065 0.0017935708 -0.029892258 0.030400295
0.00862867 0.023846898 0.027243253 0.02349161 0.008482728 0.025431976 0.0330611 -0.007730525
0.018060617 0.033826668 -0.010940269 -0.016054094 -0.009679126 -0.01470072 0.00166893 -0.010816356
-0.025153037 -0.032006364 -0.00079889596 0.034121286 -0.028417042 0.0035947822 -0.00038491935 -0.0346848
0.031310316 0.021010842 0.026282717 -0.030277148 0.0047316514 0.0230098 0.012998469 0.012239415
0.0013825186 -0.027577253 0.017576408 0.023168221 0.028915565 0.028821673 0.011802748 0.021795422
-0.0056897793 0.028406266 -0.028804392 0.03409056 0.013901457 0.025482658 0.010478191 -0.01730958
-0.034781795 -0.016132621 -0.02240423 0.0084622055 -0.025265044 0.012418386 -0.008221181 -0.0018339977
-0.008916739 -0.009054547 -0.021201007 0.012544751 -0.013144473 0.008070901 0.010314863 -0.022674628
-0.0024023391 0.004562065 -0.032541946 -0.01415859 -0.02450597 0.0011390559 -0.017037999 0.022782989
0.005646765 0.00093347207 0.025978751 0.007243499 -0.015298426 -0.034200992 -0.01990874 0.019432679
-0.026774583 -0.004331706 -0.024293369 0.0072481185 0.025018618 0.027112722 0.017558202 0.035204347
0.016155165 -0.034344014 -0.013810772 0.0068960115 -0.0202737 -0.003018774 -0.03473605 -0.030159624
-0.010899803 -0.02867777 -0.026536504 -0.02673188 0.017925546 -0.019449752 -0.007988675 -0.00883309
-0.013863131 0.0074157603 -0.017210595 -0.018337786 -0.017666126 0.00932825 -0.030789737 0.01705429
-0.0042393785 0.01608932 -0.029876899 0.009842332 0.009668309 -0.0065203663 0.012120388 -0.015244199
0.019923836 0.0137308985 -0.0059991274 -0.026472747 0.0071170405 0.0098365955 0.014324516 0.034051526
0.022754397 0.012984015 0.02733079 -0.030844199 0.028987605 0.0052510947 -0.025157202 0.0097034685
-0.03421471 -0.018665083 0.007712368 0.0021670684 -0.02725111 -0.024115698 0.033386145 -0.029236427
-0.006077096 -0.030043801 -0.013729168 0.023654018 0.030188646 0.023622498 -0.020346299 0.0017949603
0.028475773 0.026866134 0.02435264 0.022438064 0.016374096 -0.023532845 -0.013650965 -0.027548227
0.011377864 -0.008586438 -0.011471674 0.028130542 0.018413085 -0.022388062 -0.00031741336 0.011055324

fc1.bias f4 [128]
00000000: 2495 9b3c 92ca ad3c 2a90 b33c 40b3 fb3a
00000010: 9062 96bc 40ac 0c3c bdce 0bbd eaeb cabc
00000020: 9d9a 0c3d 84c2 873c 8258 1abc 323b 4cbc
00000030: c856 81bc 4c70 f8bb 7857 883b 682f ee3b
00000040: e2ee 08bd be04 ea3c 1be4 07bd 1720 9ebc
00000050: 0094 1e3b f4aa 463c 0605 e53c d093 5b3c
00000060: dbdc 9abc 4ca8 a53c 924e cc3c d65c a8bc
00000070: ae2e c3bc e8db c13c 4c69 9abc 83ec 093d
00000080: 6e6c e03c a061 62bb 1afe 73bc 74ad 743c
00000090: 804e d2bc c4eb 90bb 9449 b23c ea48 cdbc
000000a0: a4eb 90bc 8eaa 05bd 0ae4 06bc 0c75 e7bb
000000b0: c02c 00ba 7ede bb3c 524b c0bc f6a9 85bc
000000c0: 3ea9 a5bc 226e fd3c cc6d b53c cc40 e4bb
000000d0: 9874 9b3b 845d 083c 666b fabc 2842 5e3c
000000e0: db1f 02bd 9872 a83c 0baf 85bc 73d6 073d
000000f0: 02de 2dbc 2097 bcbc 6106 013d b812 ed3b
00000100: e6fd 853c 584d a23b c02f 6d3c f823 7e3c
00000110: 2815 2ebc c8cf 363c c85b b93c 84d9 533c
00000120: 41c1 c1bc 3d7d 82bc 481a 833b 7596 9dbc
00000130: 4278 d93c 3e1a e83c 0762 0a3d 8ef4 c73c
00000140: 20fd 50bb e814 67bc 7c37 c7bc b81b e83b
00000150: c5ab 0cbd 143c 41bc 6796 103d d82a c1bb
00000160: 9c4a 713c e0db 943b e2e6 89bc 7c58 c43c
00000170: 7b7a 003d 1c8f 133c f0ec b03b 1435 f0bb
00000180: 1930 c7bc 21f1 0bbd a01f 6dbb 8aa1 ba3c
00000190: 509b 9bbc 0026 1eba 3df9 8abc c0fc 663c
000001a0: 06ed 35bc 3e47 f43c 167e de3c 1042 713b
000001b0: 0780 013d 1cbf 72bc bed0 e03c 80e2 7c3a
000001c0: 618d 93bc 16a4 fc3c 6644 88bc 2008 f63b
000001d0: c028 143c bd63 e2bc 7634 f53c 75b1 0a3d
000001e0: 5fef 99bc 1381 0dbd 600b 483c 1efa 3dbc
000001f0: e492 7cbc 9311 08bd 8002 dd3a 68d4 7c3c
0.018992014 0.021214757 0.021919329 0.0019203201 -0.018357545 0.0085859895 -0.034132708 -0.024770696
0.03432714 0.016572244 -0.009420516 -0.012465285 -0.01578845 -0.007581746 0.0041608177 0.007268835
-0.03343094 0.028566714 -0.033176523 -0.019302411 0.0024197102 0.012125719 0.027956497 0.01340194
-0.01890414 0.020221852 0.024939809 -0.02055208 -0.02382597 0.02366443 -0.018849038 0.03367282
0.027395453 -0.0034543052 -0.0148921255 0.014933933 -0.025672197 -0.0044226367 0.0217636 -0.025059182
-0.017690487 -0.032633357 -0.00823308 -0.0070635136 -0.0004889481 0.022933241 -0.023473416 -0.016316395
-0.020222303 0.030936304 0.022147082 -0.006965732 0.0047441237 0.008323077 -0.03056879 0.013565578
-0.03176866 0.020562455 -0.016318819 0.0331635 -0.010612013 -0.02302128 0.031500224 0.0072348975
0.01635642 0.0049530677 0.0144767165 0.015511505 -0.010625161 0.011157937 0.022626773 0.012930278
-0.023651721 -0.015928859 0.0040009357 -0.019236783 0.026546601 0.028332826 0.033784892 0.024408605
-0.0031889156 -0.0141041055 -0.02431845 0.0070833825 -0.0343435 -0.011794109 0.035299685 -0.005895
0.014727261 0.0045428127 -0.016833726 0.023967974 0.031366806 0.009006288 0.005399339 -0.007330546
-0.024314927 -0.034165505 -0.003618218 0.022782106 -0.018994957 -0.0006032884 -0.01696455 0.014098346
-0.011103874 0.029819127 0.027159732 0.0036813058 0.031616237 -0.014816072 0.027443286 0.0009646788
-0.01801175 0.030839961 -0.016634177 0.007508293 0.009042919 -0.02763545 0.029932242 0.033860642
-0.018790899 -0.034546923 0.012209743 -0.011595277 -0.015415881 -0.033219885 0.0016861707 0.015431501

fc2.weight f4 [2, 128]
00000000: bba3 02bd 5aed 4a3d b5be a53d a09a c53b
00000010: 16b7 b3bd dccf 99bc c6b8 253d 33a8 3abd
00000020: 0dd0 af3d ec31 d5bc 20c0 6dbc e0cb 093d
00000030: 80f6 3f3b fcce a13c 4479 c13c b481 9ebc
00000040: 1978 863d 68d5 473c c034 cbba d0db 103c
00000050: 6462 813c 0f1c 9a3d 4a4b 513d 6758 96bd
00000060: 78e0 70bc aa7e 333d 60e5 67bc 9076 8abd
00000070: ee10 9ebd 82bd a7bd 114a b43d b8ca d7bc
00000080: 00ff f039 9824 9cbc 4527 a23d 68fd dc3c
00000090: 9677 4e3d 80c5 98bc 1a2d 63bd b2a0 7ebd
000000a0: 9023 d03b 3d48 a73d 0ce5 b63c 703f 62bc
000000b0: 4837 063c bde3 ad3d 93d7 803d 9f85 873d
000000c0: 623e 373d 945a 84bd dad4 afbd 46dc 85bd
000000d0: 5033 8a3b b8e4 a23c 7ef9 90bd 6434 823c
000000e0: 9b50 943d af71 813d 00f5 90b9 d86a 30bd
000000f0: e5a2 8ebd c49b ad3c f814 f5bc 82a7 50bd
00000100: c7a2 61bd eef6 3abd 770f 98bd c04e 1fbb
00000110: 1a6f 3a3d 0071 65bb 8c16 40bd 0b65 a33d
00000120: fa86 183d ddf5 8dbd f9c2 afbd ca87 a5bd
00000130: 9e1f 7fbd 80d4 393a 18a5 093d 0167 ac3d
00000140: 8001 0b3b ceec 253d f593 ad3d 7251 38bd
00000150: f286 523d f84b 72bc 10fe 0d3d 4e01 96bd
00000160: 461c 2c3d 2f51 70bd 807a d33a 141c f63c
00000170: 2028 3a3c 0841 7cbd 0c73 9ebd 7539 803d
00000180: fa91 363d 1afa 3d3d 3c02 c6bc be8b 5dbd
00000190: 7c8d 863c 6086 17bc 6eca e0bc 51ef a23d
000001a0: 7082 d33b e6ff 343d 4210 6a3d d288 083d
000001b0: 919e 95bd 3826 b83c 6c5d 143d 38ea c4bc
000001c0: f671 5d3d 3220 8bbd 9c72 9c3c d576 34bd
000001d0: 38db 983c 7e1d 473d a914 a2bd 0879 9c3c
000001e0: 04ed b33c f294 6f3d 12e1 083d fe0d 273d
000001f0: 1304 86bd 606a aa3b d874 4abc 2ec9 5f3d
00000200: 8f05 a23d c27c 5f3d 246e ac3c a82b 5cbd
00000210: cc2f a1bd 1c5c 84bd e644 8abd b065 38bd
00000220: c28f 013d 28c0 d3bc 20f4 94bd f48a b53c
00000230: 2ec4 683d 4310 af3d e84b 493c b80e 5f3c
00000240: 506f b7bb 9023 9a3c 45af a4bd 8a3c 553d
00000250: 1aa0 5b3d 7771 afbd 5c49 27bd f4c1 97bd
00000260: 904d 1d3c fea5 e7bc 2c5c c93c a0d3 fbbb
00000270: 2544 913d 80a9 223b 2091 a9bd 6c29 be3c
00000280: 888d 04bc c17d 20bd 901a 76bc 756f 833d
00000290: 600a 9dbc 3541 8bbd ce3f 203d ee21 3c3d
000002a0: 7a9b a8bd 10aa 7c3c d992 a43d f0c9 acbd
000002b0: 8085 d13a b335 913d 1322 983d 4f3e 8dbd
000002c0: c0e3 523c ce92 04bd 657e 07bd 1fa4 34bd
000002d0: 24e0 033d ae01 663d dbe4 8c3d 80ce 76bb
000002e0: e00f 633c b5ec 3fbd de23 56bd c91a 9cbd
000002f0: c561 a1bd 3766 4dbd 2c16 b83c fc7a a0bd
00000300: 8130 a6bd 1f6c b43d f64a 9dbd 465d 6f3d
00000310: e489 38bd b81b fe3c 70ae 2bbc 4827 b33c
00000320: 8079 283b 32f9 703d 4ac3 523d 388d 29bc
00000330: 5eda 9cbd 0af7 0e3d d8e6 0d3c dc36 41bd
00000340: 7ee9 4b3d 749b 65bd 5a91 193d af71 843d
00000350: 42d9 fdbc a0ad 8a3c 2215 5b3d 000c b539
00000360: 8e8d 6a3d 8818 08bc 5002 ffbb e1ca 9f3d
00000370: 407a b73b a221 643d 3588 65bd 48e0 4abc
00000380: eaed 633d c365 25bd 48d3 343c f309 3ebd
00000390: 38d6 89bd 6984 10bd 0865 97bd 50b0 073c
000003a0: 50a0 843c a89f a1bd f0d8 9ebd 959c 4ebd
000003b0: 30d4 a1bc 5e64 efbc 004b ca39 f583 803d
000003c0: cfa9 98bd 7e97 763d 971d 2ebd a427 cfbc
000003d0: 00dd ca39 8029 d2bc 6c5e e3bc 2787 18bd
000003e0: f7f6 b13d 84e4 b3bd 9083 b53c 6810 a23c
000003f0: 0e6d 633d d800 98bd 189e 303c d5ac 823d
-0.031894427 0.049542762 0.08093015 0.0060303956 -0.08775155 -0.018775873 0.040459417 -0.045570564
0.085846044 -0.026024781 -0.014511138 0.033641696 0.0029291213 0.019752018 0.023617394 -0.019348957
0.065658756 0.012196876 -0.0015503392 0.00884147 0.015793987 0.07524883 0.051097192 -0.0734108
-0.014701955 0.04382197 -0.014153808 -0.06760895 -0.07718073 -0.081904426 0.088031895 -0.026341781
0.00045966357 -0.019060418 0.07917646 0.026976302 0.050407015 -0.018648863 -0.055462934 -0.06216497
0.0063518956 0.08168075 0.022326015 -0.01380907 0.008191891 0.08490703 0.062911175 0.06617283
0.044737227 -0.06462589 -0.0858552 -0.065361544 0.0042175427 0.019884452 -0.07078837 0.015894122
0.07241937 0.063205115 -0.0002764836 -0.043070644 -0.069646634 0.021192439 -0.029917225 -0.050940998
-0.055086877 -0.045645647 -0.07424825 -0.0024308413 0.04551611 -0.003500998 -0.046896502 0.07978257
0.0372381 -0.0693166 -0.0858211 -0.0808254 -0.062286012 0.0007088855 0.03360471 0.08418084
0.002121061 0.040509038 0.08475486 -0.044999547 0.051398225 -0.01478862 0.03466612 -0.073244676
0.04201915 -0.058671173 0.001613453 0.030042686 0.011362106 -0.061585456 -0.07736787 0.06260959
0.044572808 0.046381094 -0.024170987 -0.054088347 0.016424887 -0.009248346 -0.027440276 0.07955802
0.0064547583 0.044189356 0.05714441 0.033333607 -0.07305635 0.022479162 0.036221907 -0.024037465
0.05406376 -0.0679325 0.019097619 -0.04405864 0.01865922 0.04861211 -0.07914097 0.019100681
0.021963604 0.058491655 0.03341777 0.04078483 -0.06543746 0.005200669 -0.012356959 0.05463522
0.079112165 0.054562338 0.021048613 -0.05375257 -0.07870445 -0.06462881 -0.067514226 -0.04501885
0.03163124 -0.025848463 -0.07273126 0.022160985 0.056827717 0.085480236 0.012286164 0.013614349
-0.0055979863 0.018815786 -0.080412425 0.052059688 0.05361948 -0.085665636 -0.040841445 -0.074100405
0.009601012 -0.028277393 0.024580084 -0.00768514 0.07093076 0.0024820268 -0.082796335 0.02321311
-0.008090384 -0.03918243 -0.015020981 0.06417743 -0.019169986 -0.06799547 0.03912335 0.045930795
-0.0823278 0.015421405 0.080358215 -0.08436954 0.0015985221 0.070903204 0.07428374 -0.0689665
0.012871683 -0.032366566 -0.033079524 -0.04410183 0.03219618 0.056153946 0.06879588 -0.0037659705
0.013858765 -0.0468566 -0.0522803 -0.07622296 -0.07879976 -0.050146308 0.02247151 -0.078359574
-0.0811472 0.08809685 -0.07680313 0.05843856 -0.045053378 0.031019077 -0.010478601 0.021869317
0.0025707185 0.0588314 0.051455773 -0.010348611 -0.07658838 0.034903564 0.0086609945 -0.04717146
0.049783222 -0.056056455 0.037492134 0.06466996 -0.030987386 0.016928494 0.05348695 0.0003453195
0.057263903 -0.00830663 -0.007782258 0.07802368 0.00559929 0.055696137 -0.0560381 -0.012382574
0.055646814 -0.04038025 0.0110367015 -0.046396207 -0.06730312 -0.035282526 -0.07392317 0.008281782
0.016189724 -0.0789178 -0.07756221 -0.050442297 -0.0197545 -0.029222663 0.00038584322 0.06275169
-0.074542634 0.060203068 -0.042508688 -0.025287457 0.000386931 -0.025654554 -0.027754985 -0.037238266
0.08689683 -0.0878382 0.02215746 0.019783214 0.055523925 -0.07422036 0.01077988 0.06380621

fc2.bias f4 [2]
00000000: a94f 873d b3e5 8bbd
0.06606991 -0.06830921
